[2023-05-27 20:19:02,247: INFO: stage_02_training]: 
********************
[2023-05-27 20:19:02,247: INFO: stage_02_training]: >>>>> stage Training started <<<<<
[2023-05-27 20:19:02,247: INFO: common]: yaml file: configs/config.yaml loaded successfully
[2023-05-27 20:19:02,253: INFO: stage_02_training]: Train images Transformed
[2023-05-27 20:19:02,253: INFO: stage_02_training]: Test images Transformed
[2023-05-27 20:19:02,255: INFO: stage_02_training]: Label_map is {'ants': 0, 'bees': 1}
[2023-05-27 20:19:03,862: INFO: stage_02_training]: AlexNet(
  (features): Sequential(
    (0): Conv2d(3, 64, kernel_size=(11, 11), stride=(4, 4), padding=(2, 2))
    (1): ReLU(inplace=True)
    (2): MaxPool2d(kernel_size=3, stride=2, padding=0, dilation=1, ceil_mode=False)
    (3): Conv2d(64, 192, kernel_size=(5, 5), stride=(1, 1), padding=(2, 2))
    (4): ReLU(inplace=True)
    (5): MaxPool2d(kernel_size=3, stride=2, padding=0, dilation=1, ceil_mode=False)
    (6): Conv2d(192, 384, kernel_size=(3, 3), stride=(1, 1), padding=(1, 1))
    (7): ReLU(inplace=True)
    (8): Conv2d(384, 256, kernel_size=(3, 3), stride=(1, 1), padding=(1, 1))
    (9): ReLU(inplace=True)
    (10): Conv2d(256, 256, kernel_size=(3, 3), stride=(1, 1), padding=(1, 1))
    (11): ReLU(inplace=True)
    (12): MaxPool2d(kernel_size=3, stride=2, padding=0, dilation=1, ceil_mode=False)
  )
  (avgpool): AdaptiveAvgPool2d(output_size=(6, 6))
  (classifier): Sequential(
    (0): Dropout(p=0.5, inplace=False)
    (1): Linear(in_features=9216, out_features=4096, bias=True)
    (2): ReLU(inplace=True)
    (3): Dropout(p=0.5, inplace=False)
    (4): Linear(in_features=4096, out_features=4096, bias=True)
    (5): ReLU(inplace=True)
    (6): Linear(in_features=4096, out_features=1000, bias=True)
  )
)
[2023-05-27 20:19:03,938: INFO: stage_02_training]: <pandas.io.formats.style.Styler object at 0x000001F4A2CF5DC0>
[2023-05-27 20:19:03,968: INFO: stage_02_training]: >>>>> stage Training completed!<<<<<

[2023-05-27 20:20:47,713: INFO: stage_02_training]: 
********************
[2023-05-27 20:20:47,713: INFO: stage_02_training]: >>>>> stage Training started <<<<<
[2023-05-27 20:20:47,715: INFO: common]: yaml file: configs/config.yaml loaded successfully
[2023-05-27 20:20:47,717: INFO: stage_02_training]: Train images Transformed
[2023-05-27 20:20:47,718: INFO: stage_02_training]: Test images Transformed
[2023-05-27 20:20:47,718: INFO: stage_02_training]: Label_map is {'ants': 0, 'bees': 1}
[2023-05-27 20:20:49,488: INFO: stage_02_training]: AlexNet(
  (features): Sequential(
    (0): Conv2d(3, 64, kernel_size=(11, 11), stride=(4, 4), padding=(2, 2))
    (1): ReLU(inplace=True)
    (2): MaxPool2d(kernel_size=3, stride=2, padding=0, dilation=1, ceil_mode=False)
    (3): Conv2d(64, 192, kernel_size=(5, 5), stride=(1, 1), padding=(2, 2))
    (4): ReLU(inplace=True)
    (5): MaxPool2d(kernel_size=3, stride=2, padding=0, dilation=1, ceil_mode=False)
    (6): Conv2d(192, 384, kernel_size=(3, 3), stride=(1, 1), padding=(1, 1))
    (7): ReLU(inplace=True)
    (8): Conv2d(384, 256, kernel_size=(3, 3), stride=(1, 1), padding=(1, 1))
    (9): ReLU(inplace=True)
    (10): Conv2d(256, 256, kernel_size=(3, 3), stride=(1, 1), padding=(1, 1))
    (11): ReLU(inplace=True)
    (12): MaxPool2d(kernel_size=3, stride=2, padding=0, dilation=1, ceil_mode=False)
  )
  (avgpool): AdaptiveAvgPool2d(output_size=(6, 6))
  (classifier): Sequential(
    (0): Dropout(p=0.5, inplace=False)
    (1): Linear(in_features=9216, out_features=4096, bias=True)
    (2): ReLU(inplace=True)
    (3): Dropout(p=0.5, inplace=False)
    (4): Linear(in_features=4096, out_features=4096, bias=True)
    (5): ReLU(inplace=True)
    (6): Linear(in_features=4096, out_features=1000, bias=True)
  )
)
[2023-05-27 20:20:49,488: ERROR: stage_02_training]: module 'torchvision.models' has no attribute 'parameters'
Traceback (most recent call last):
  File "E:\Machine Learning Projects\hymenoptera_data-pytorch\src\stage_02_training.py", line 95, in <module>
    main(config_path=parsed_args.config)
  File "E:\Machine Learning Projects\hymenoptera_data-pytorch\src\stage_02_training.py", line 79, in main
…
AttributeError: 'Styler' object has no attribute 'to_string'
[2023-05-27 20:23:21,302: INFO: stage_02_training]: 
********************
[2023-05-27 20:23:21,302: INFO: stage_02_training]: >>>>> stage Training started <<<<<
[2023-05-27 20:23:21,302: INFO: common]: yaml file: configs/config.yaml loaded successfully
[2023-05-27 20:23:21,306: INFO: stage_02_training]: Train images Transformed
[2023-05-27 20:23:21,306: INFO: stage_02_training]: Test images Transformed
[2023-05-27 20:23:21,306: INFO: stage_02_training]: Label_map is {'ants': 0, 'bees': 1}
[2023-05-27 20:23:22,997: INFO: stage_02_training]: AlexNet(
  (features): Sequential(
    (0): Conv2d(3, 64, kernel_size=(11, 11), stride=(4, 4), padding=(2, 2))
    (1): ReLU(inplace=True)
    (2): MaxPool2d(kernel_size=3, stride=2, padding=0, dilation=1, ceil_mode=False)
    (3): Conv2d(64, 192, kernel_size=(5, 5), stride=(1, 1), padding=(2, 2))
    (4): ReLU(inplace=True)
    (5): MaxPool2d(kernel_size=3, stride=2, padding=0, dilation=1, ceil_mode=False)
    (6): Conv2d(192, 384, kernel_size=(3, 3), stride=(1, 1), padding=(1, 1))
    (7): ReLU(inplace=True)
    (8): Conv2d(384, 256, kernel_size=(3, 3), stride=(1, 1), padding=(1, 1))
    (9): ReLU(inplace=True)
    (10): Conv2d(256, 256, kernel_size=(3, 3), stride=(1, 1), padding=(1, 1))
    (11): ReLU(inplace=True)
    (12): MaxPool2d(kernel_size=3, stride=2, padding=0, dilation=1, ceil_mode=False)
  )
  (avgpool): AdaptiveAvgPool2d(output_size=(6, 6))
  (classifier): Sequential(
    (0): Dropout(p=0.5, inplace=False)
    (1): Linear(in_features=9216, out_features=4096, bias=True)
    (2): ReLU(inplace=True)
    (3): Dropout(p=0.5, inplace=False)
    (4): Linear(in_features=4096, out_features=4096, bias=True)
    (5): ReLU(inplace=True)
    (6): Linear(in_features=4096, out_features=1000, bias=True)
  )
)
[2023-05-27 20:23:23,016: INFO: stage_02_training]:                 Modules  parameters
0     features.0.weight       23232
1       features.0.bias          64
2     features.3.weight      307200
3       features.3.bias         192
4     features.6.weight      663552
5       features.6.bias         384
6     features.8.weight      884736
7       features.8.bias         256
…
[2023-05-27 20:28:22,740: INFO: stage_02_training]: >>>>> stage Training completed!<<<<<

[2023-05-27 20:29:21,950: INFO: stage_02_training]: 
********************
[2023-05-27 20:29:21,950: INFO: stage_02_training]: >>>>> stage Training started <<<<<
[2023-05-27 20:29:21,950: INFO: common]: yaml file: configs/config.yaml loaded successfully
[2023-05-27 20:29:21,955: INFO: stage_02_training]: Train images Transformed
[2023-05-27 20:29:21,955: INFO: stage_02_training]: Test images Transformed
[2023-05-27 20:29:21,955: INFO: stage_02_training]: Label_map is {'ants': 0, 'bees': 1}
[2023-05-27 20:29:23,185: INFO: stage_02_training]: AlexNet(
  (features): Sequential(
    (0): Conv2d(3, 64, kernel_size=(11, 11), stride=(4, 4), padding=(2, 2))
    (1): ReLU(inplace=True)
    (2): MaxPool2d(kernel_size=3, stride=2, padding=0, dilation=1, ceil_mode=False)
    (3): Conv2d(64, 192, kernel_size=(5, 5), stride=(1, 1), padding=(2, 2))
    (4): ReLU(inplace=True)
    (5): MaxPool2d(kernel_size=3, stride=2, padding=0, dilation=1, ceil_mode=False)
    (6): Conv2d(192, 384, kernel_size=(3, 3), stride=(1, 1), padding=(1, 1))
    (7): ReLU(inplace=True)
    (8): Conv2d(384, 256, kernel_size=(3, 3), stride=(1, 1), padding=(1, 1))
    (9): ReLU(inplace=True)
    (10): Conv2d(256, 256, kernel_size=(3, 3), stride=(1, 1), padding=(1, 1))
    (11): ReLU(inplace=True)
    (12): MaxPool2d(kernel_size=3, stride=2, padding=0, dilation=1, ceil_mode=False)
  )
  (avgpool): AdaptiveAvgPool2d(output_size=(6, 6))
  (classifier): Sequential(
    (0): Dropout(p=0.5, inplace=False)
    (1): Linear 
    (2): ReLU(inplace=True)
    (3): Dropout(p=0.5, inplace=False)
    (4): Linear(in_features=4096, out_features=4096, bias=True)
    (5): ReLU(inplace=True)
    (6): Linear(in_features=4096, out_features=1000, bias=True)
  )
)
[2023-05-27 20:29:23,185: INFO: stage_02_training]: Parameters: {'trainable': 0, 'non-trainable': 61100840}
 Empty DataFrame
Columns: [Modules, parameters]
Index: []
[2023-05-27 20:29:23,210: INFO: stage_02_training]: >>>>> stage Training completed!<<<<<

[2023-05-27 20:33:32,840: INFO: stage_02_training]: 
********************
[2023-05-27 20:33:32,840: INFO: stage_02_training]: >>>>> stage Training started <<<<<
[2023-05-27 20:33:32,840: INFO: common]: yaml file: configs/config.yaml loaded successfully
[2023-05-27 20:33:32,845: INFO: stage_02_training]: Train images Transformed
[2023-05-27 20:33:32,847: INFO: stage_02_training]: Test images Transformed
[2023-05-27 20:33:32,847: INFO: stage_02_training]: Label_map is {'ants': 0, 'bees': 1}
[2023-05-27 20:33:34,379: INFO: stage_02_training]: AlexNet(
  (features): Sequential(
    (0): Conv2d(3, 64, kernel_size=(11, 11), stride=(4, 4), padding=(2, 2))
    (1): ReLU(inplace=True)
    (2): MaxPool2d(kernel_size=3, stride=2, padding=0, dilation=1, ceil_mode=False)
    (3): Conv2d(64, 192, kernel_size=(5, 5), stride=(1, 1), padding=(2, 2))
    (4): ReLU(inplace=True)
    (5): MaxPool2d(kernel_size=3, stride=2, padding=0, dilation=1, ceil_mode=False)
    (6): Conv2d(192, 384, kernel_size=(3, 3), stride=(1, 1), padding=(1, 1))
    (7): ReLU(inplace=True)
    (8): Conv2d(384, 256, kernel_size=(3, 3), stride=(1, 1), padding=(1, 1))
    (9): ReLU(inplace=True)
    (10): Conv2d(256, 256, kernel_size=(3, 3), stride=(1, 1), padding=(1, 1))
    (11): ReLU(inplace=True)
    (12): MaxPool2d(kernel_size=3, stride=2, padding=0, dilation=1, ceil_mode=False)
  )
  (avgpool): AdaptiveAvgPool2d(output_size=(6, 6))
  (classifier): Sequential(
    (0): Dropout(p=0.5, inplace=False)
    (1): Linear(in_features=9216, out_features=4096, bias=True)
    (2): ReLU(inplace=True)
    (3): Dropout(p=0.5, inplace=False)
    (4): Linear(in_features=4096, out_features=4096, bias=True)
    (5): ReLU(inplace=True)
    (6): Linear(in_features=4096, out_features=1000, bias=True)
  )
)
[2023-05-27 20:33:34,379: INFO: stage_02_training]: Parameters count before modifying Classifier Layer: {'trainable': 0, 'non-trainable': 61100840}
 Empty DataFrame
Columns: [Modules, parameters]
Index: []
[2023-05-27 20:33:34,409: INFO: stage_02_training]: Parameters count after modifying Classifier Layer: {'trainable': 921902, 'non-trainable': 2469696}
…
